…
ame":"Dezmon Patten","userId":"11280400299579213907"},"user_tz":240},"id":"ATq1YEt9pbVW","outputId":"9af57300-dba0-4d80-de87-99603485c8f0"},"outputs":[{"name":"stdout","output_type":"stream","text":["Model: \"vgg16\"\n","_________________________________________________________________\n"," Layer (type)                Output Shape              Param #   \n","=================================================================\n"," input_2 (InputLayer)        [(None, 224, 224, 3)]     0         \n","                                                                 \n"," block1_conv1 (Conv2D)       (None, 224, 224, 64)      1792      \n","                                                                 \n"," block1_conv2 (Conv2D)       (None, 224, 224, 64)      36928     \n","                                                                 \n"," block1_pool (MaxPooling2D)  (None, 112, 112, 64)      0         \n","                                                                 \n"," block2_conv1 (Conv2D)       (None, 112, 112, 128)     73856     \n","                                                                 \n"," block2_conv2 (Conv2D)       (None, 112, 112, 128)     147584    \n","                                                                 \n"," block2_pool (MaxPooling2D)  (None, 56, 56, 128)       0         \n","                                                                 \n"," block3_conv1 (Conv2D)       (None, 56, 56, 256)       295168    \n","                                                                 \n"," block3_conv2 (Conv2D)       (None, 56, 56, 256)       590080    \n","                                                                 \n"," block3_conv3 (Conv2D)       (None, 56, 56, 256)       590080    \n","                                                                 \n"," block3_pool (MaxPooling2D)  (None, 28, 28, 256)       0         \n","                                                                 \n"," block4_conv1 (Conv2D)       (None, 28, 28, 512)       1180160   \n","                                                                 \n"," block4_conv2 (Conv2D)       (None, 28, 28, 512)       2359808   \n","                                                                 \n"," block4_conv3 (Conv2D)       (None, 28, 28, 512)       2359808   \n","                                                                 \n"," block4_pool (MaxPooling2D)  (None, 14, 14, 512)       0         \n","                                                                 \n"," block5_conv1 (Conv2D)       (None, 14, 14, 512)       2359808   \n","                                                                 \n"," block5_conv2 (Conv2D)       (None, 14, 14, 512)       2359808   \n","                                                                 \n"," block5_conv3 (Conv2D)       (None, 14, 14, 512)       2359808   \n","                                                                 \n"," block5_pool (MaxPooling2D)  (None, 7, 7, 512)         0         \n","                                                                 \n","=================================================================\n","Total params: 14714688 (56.13 MB)\n","Trainable params: 14714688 (56.13 MB)\n","Non-trainable params: 0 (0.00 Byte)\n","_________________________________________________________________\n"]}],"source":["# Summary of the VGG16 base\n","vgg16_base.
…
